models/blocksize-model/model.pt (torch, 7115 bytes, 3 tensors)

weight f4 [16, 1]
000000 a2 43 25 3f fc 68 77 bf dc 1a e6 3e c0 96 04 bf
       0.64556324 -0.9664457 0.44942367 -0.51792526
000010 64 1c ac be 80 4f 3c bc 28 9c 2b be 24 4e 1e bf
       -0.3361541 -0.011493564 -0.16758788 -0.61837983
000020 58 12 47 bf 96 d4 09 3f e4 60 ee be 79 2e 6e 3e
       -0.77762365 0.53840005 -0.46558297 0.23259915
000030 df 80 33 3f 10 80 49 be 1c 3d a2 3e 80 c0 5f bd
       0.70118517 -0.19677758 0.31687248 -0.05462694

bias f4 [16]
000000 b9 8b 11 41 28 e2 c9 3e d9 27 2c c1 7c 75 de be
       9.096612 0.39430356 -10.759728 -0.43449008
000010 16 ef 06 bf fa 3d 34 bf 9c 22 76 bf 70 4b 8a be
       -0.52708566 -0.7040707 -0.9614656 -0.2701068
000020 a4 2e db 3e 15 00 2a 41 14 29 09 bf 99 0d 16 41
       0.4280902 10.62502 -0.53578305 9.37832
000030 bd 4b a3 40 e0 bd 5a be b5 c2 17 c1 c2 85 6f 3f
       5.1029954 -0.21361494 -9.485036 0.93563473

weight f4 [1, 16]
000000 72 2c a0 3d 00 bb a7 bd 2c 55 01 be 60 1a c3 bd
       0.07820977 -0.08189964 -0.12630147 -0.09526515
000010 a8 0f 35 be 52 c2 12 be 30 ae d1 3d 54 7d cc bd
       -0.17681754 -0.1433194 0.10238302 -0.09984842
000020 e8 be 23 3d 4d 20 52 3e dc 3e 70 3e af b6 38 3e
       0.039976984 0.20520134 0.23461479 0.18038438
000030 33 3b a3 3b b4 04 26 3e b3 1f 68 be 36 d9 1d be
       0.0049814223 0.16212732 -0.22668342 -0.1541489
